…
I0826 16:52:08.382947 13242 net.cpp:294] The NetState phase (0) differed from the phase (1) specified by a rule in layer mnist
I0826 16:52:08.385026 13242 net.cpp:294] The NetState phase (0) differed from the phase (1) specified by a rule in layer accuracy1
I0826 16:52:08.385468 13242 net.cpp:51] Initializing net from parameters: 
name: "LeNet"
state {
  phase: TRAIN
  level: 0
  stage: ""
}
layer {
  name: "mnist"
  type: "Data"
  top: "data"
  top: "label"
  include {
    phase: TRAIN
  }
  transform_param {
    scale: 0.00390625
  }
  data_param {
    source: "examples/mnist/mnist_train_lmdb"
    batch_size: 64
    backend: LMDB
  }
}
layer {
  name: "conv1"
  type: "Convolution"
  bottom: "data"
  top: "conv1"
  param {
    lr_mult: 1
  }
  param {
    lr_mult: 2
  }
  convolution_param {
    num_output: 20
    kernel_size: 5
    stride: 1
    weight_filler {
      type: "xavier"
    }
    bias_filler {
      type: "constant"
    }
  }
}
layer {
  name: "pool1"
  type: "Pooling"
  bottom: "conv1"
  top: "pool1"
  pooling_param {
    pool: MAX
    kernel_size: 2
    stride: 2
  }
}
layer {
  name: "conv2"
  type: "Convolution"
  bottom: "pool1"
  top: "conv2"
  param {
    lr_mult: 1
  }
  param {
    lr_mult: 2
  }
  convolution_param {
    num_output: 50
    kernel_size: 5
    stride: 1
    weight_filler {
      type: "xavier"
    }
    bias_filler {
      type: "constant"
    }
  }
}
layer {
  name: "pool2"
  type: "Pooling"
  bottom: "conv2"
  top: "pool2"
  pooling_param {
    pool: MAX
    kernel_size: 2
    stride: 2
  }
}
layer {
  name: "ip1"
  type: "InnerProduct"
  bottom: "pool2"
  top: "ip1"
  param {
    lr_mult: 1
  }
  param {
    lr_mult: 2
  }
  inner_product_param {
    num_output: 500
    weight_filler {
      type: "xavier"
    }
    bias_filler {
      type: "constant"
    }
  }
}
layer {
  name: "relu1"
  type: "ReLU"
  bottom: "ip1"
  top: "ip1"
}
layer {
  name: "ip1_2"
  type: "InnerProduct"
  bottom: "ip1"
  top: "ip1_2"
  param {
    lr_mult: 1
  }
  param {
    lr_mult: 2
  }
  inner_product_param {
    num_output: 50
    weight_filler {
      type: "xavier"
    }
    bias_filler {
      type: "constant"
    }
  }
}
layer {
  name: "relu1_2"
  type: "ReLU"
  bottom: "ip1_2"
  top: "ip1_2"
}
layer {
  name: "ip2_1"
  type: "InnerProduct"
  bottom: "ip1_2"
  top: "ip2_1"
  param {
    lr_mult: 1
  }
  param {
    lr_mult: 2
  }
  inner_product_param {
    num_output: 10
    weight_filler {
      type: "xavier"
    }
    bias_filler {
      type: "constant"
    }
  }
}
layer {
  name: "loss1"
  type: "SoftmaxWithLoss"
  bottom: "ip2_1"
  bottom: "label"
  top: "loss"
}
I0826 16:52:08.386636 13242 layer_factory.hpp:77] Creating layer mnist
I0826 16:52:08.388893 13242 db_lmdb.cpp:35] Opened lmdb examples/mnist/mnist_train_lmdb
I0826 16:52:08.394038 13242 net.cpp:84] Creating Layer mnist
I0826 16:52:08.398216 13242 net.cpp:380] mnist -> data
I0826 16:52:08.398550 13242 net.cpp:380] mnist -> label
I0826 16:52:08.398689 13242 data_layer.cpp:45] output data size: 64,1,28,28
I0826 16:52:08.399392 13242 net.cpp:122] Setting up mnist
I0826 16:52:08.402912 13242 net.cpp:129] Top shape: 64 1 28 28 (50176)
I0826 16:52:08.402956 13242 net.cpp:129] Top shape: 64 (64)
I0826 16:52:08.402972 13242 net.cpp:137] Memory required for data: 200960
I0826 16:52:08.403002 13242 layer_factory.hpp:77] Creating layer conv1
I0826 16:52:08.403043 13242 net.cpp:84] Creating Layer conv1
I0826 16:52:08.403066 13242 net.cpp:406] conv1 <- data
I0826 16:52:08.403095 13242 net.cpp:380] conv1 -> conv1
I0826 16:52:08.405004 13242 net.cpp:122] Setting up conv1
I0826 16:52:08.406710 13242 net.cpp:129] Top shape: 64 20 24 24 (737280)
I0826 16:52:08.406759 13242 net.cpp:137] Memory required for data: 3150080
I0826 16:52:08.406822 13242 layer_factory.hpp:77] Creating layer pool1
I0826 16:52:08.406852 13242 net.cpp:84] Creating Layer pool1
I0826 16:52:08.406872 13242 net.cpp:406] pool1 <- conv1
I0826 16:52:08.406895 13242 net.cpp:380] pool1 -> pool1
I0826 16:52:08.406939 13242 net.cpp:122] Setting up pool1
I0826 16:52:08.406962 13242 net.cpp:129] Top shape: 64 20 12 12 (184320)
I0826 16:52:08.406980 13242 net.cpp:137] Memory required for data: 3887360
I0826 16:52:08.406997 13242 layer_factory.hpp:77] Creating layer conv2
I0826 16:52:08.407022 13242 net.cpp:84] Creating Layer conv2
I0826 16:52:08.407040 13242 net.cpp:406] conv2 <- pool1
I0826 16:52:08.407061 13242 net.cpp:380] conv2 -> conv2
I0826 16:52:08.413455 13242 net.cpp:122] Setting up conv2
I0826 16:52:08.419934 13242 net.cpp:129] Top shape: 64 50 8 8 (204800)
I0826 16:52:08.419958 13242 net.cpp:137] Memory required for data: 4706560
I0826 16:52:08.419991 13242 layer_factory.hpp:77] Creating layer pool2
I0826 16:52:08.420023 13242 net.cpp:84] Creating Layer pool2
I0826 16:52:08.420048 13242 net.cpp:406] pool2 <- conv2
I0826 16:52:08.420084 13242 net.cpp:380] pool2 -> pool2
I0826 16:52:08.420117 13242 net.cpp:122] Setting up pool2
I0826 16:52:08.420140 13242 net.cpp:129] Top shape: 64 50 4 4 (51200)
I0826 16:52:08.420213 13242 net.cpp:137] Memory required for data: 4911360
I0826 16:52:08.420234 13242 layer_factory.hpp:77] Creating layer ip1
I0826 16:52:08.420756 13242 net.cpp:84] Creating Layer ip1
I0826 16:52:08.420789 13242 net.cpp:406] ip1 <- pool2
I0826 16:52:08.420816 13242 net.cpp:380] ip1 -> ip1
I0826 16:52:08.457126 13242 net.cpp:122] Setting up ip1
I0826 16:52:08.459054 13242 net.cpp:129] Top shape: 64 500 (32000)
I0826 16:52:08.460319 13242 net.cpp:137] Memory required for data: 5039360
I0826 16:52:08.461463 13242 layer_factory.hpp:77] Creating layer relu1
I0826 16:52:08.462041 13242 net.cpp:84] Creating Layer relu1
I0826 16:52:08.462081 13242 net.cpp:406] relu1 <- ip1
I0826 16:52:08.462110 13242 net.cpp:367] relu1 -> ip1 (in-place)
I0826 16:52:08.462141 13242 net.cpp:122] Setting up relu1
I0826 16:52:08.463065 13242 net.cpp:129] Top shape: 64 500 (32000)
I0826 16:52:08.463109 13242 net.cpp:137] Memory required for data: 5167360
I0826 16:52:08.463129 13242 layer_factory.hpp:77] Creating layer ip1_2
I0826 16:52:08.463151 13242 net.cpp:84] Creating Layer ip1_2
I0826 16:52:08.463171 13242 net.cpp:406] ip1_2 <- ip1
I0826 16:52:08.463198 13242 net.cpp:380] ip1_2 -> ip1_2
I0826 16:52:08.472401 13242 net.cpp:122] Setting up ip1_2
I0826 16:52:08.482640 13242 net.cpp:129] Top shape: 64 50 (3200)
I0826 16:52:08.482683 13242 net.cpp:137] Memory required for data: 5180160
I0826 16:52:08.482719 13242 layer_factory.hpp:77] Creating layer relu1_2
I0826 16:52:08.482751 13242 net.cpp:84] Creating Layer relu1_2
I0826 16:52:08.482774 13242 net.cpp:406] relu1_2 <- ip1_2
I0826 16:52:08.482800 13242 net.cpp:367] relu1_2 -> ip1_2 (in-place)
I0826 16:52:08.482898 13242 net.cpp:122] Setting up relu1_2
I0826 16:52:08.482924 13242 net.cpp:129] Top shape: 64 50 (3200)
I0826 16:52:08.482944 13242 net.cpp:137] Memory required for data: 5192960
I0826 16:52:08.482961 13242 layer_factory.hpp:77] Creating layer ip2_1
I0826 16:52:08.482982 13242 net.cpp:84] Creating Layer ip2_1
I0826 16:52:08.482997 13242 net.cpp:406] ip2_1 <- ip1_2
I0826 16:52:08.483013 13242 net.cpp:380] ip2_1 -> ip2_1
I0826 16:52:08.483057 13242 net.cpp:122] Setting up ip2_1
I0826 16:52:08.483080 13242 net.cpp:129] Top shape: 64 10 (640)
I0826 16:52:08.483096 13242 net.cpp:137] Memory required for data: 5195520
I0826 16:52:08.483122 13242 layer_factory.hpp:77] Creating layer loss1
I0826 16:52:08.483144 13242 net.cpp:84] Creating Layer loss1
I0826 16:52:08.485950 13242 net.cpp:406] loss1 <- ip2_1
I0826 16:52:08.486001 13242 net.cpp:406] loss1 <- label
I0826 16:52:08.486034 13242 net.cpp:380] loss1 -> loss
I0826 16:52:08.486085 13242 layer_factory.hpp:77] Creating layer loss1
…
I0826 16:52:08.487023 13242 solver.cpp:172] Creating test net (#0) specified by net file: examples/mnist/lenet_train_test_hkx.prototxt
I0826 16:52:08.492004 13242 net.cpp:294] The NetState phase (1) differed from the phase (0) specified by a rule in layer mnist
I0826 16:52:08.492200 13242 net.cpp:51] Initializing net from parameters: 
name: "LeNet"
state {
  phase: TEST
}
layer {
  name: "mnist"
  type: "Data"
  top: "data"
  top: "label"
  include {
    phase: TEST
  }
  transform_param {
    scale: 0.00390625
  }
  data_param {
    source: "examples/mnist/mnist_test_lmdb"
    batch_size: 100
    backend: LMDB
  }
}
layer {
  name: "conv1"
  type: "Convolution"
  bottom: "data"
  top: "conv1"
  param {
    lr_mult: 1
  }
  param {
    lr_mult: 2
  }
  convolution_param {
    num_output: 20
    kernel_size: 5
    stride: 1
    weight_filler {
      type: "xavier"
    }
    bias_filler {
      type: "constant"
    }
  }
}
layer {
  name: "pool1"
  type: "Pooling"
  bottom: "conv1"
  top: "pool1"
  pooling_param {
    pool: MAX
    kernel_size: 2
    stride: 2
  }
}
layer {
  name: "conv2"
  type: "Convolution"
  bottom: "pool1"
  top: "conv2"
  param {
    lr_mult: 1
  }
  param {
    lr_mult: 2
  }
  convolution_param {
    num_output: 50
    kernel_size: 5
    stride: 1
    weight_filler {
      type: "xavier"
    }
    bias_filler {
      type: "constant"
    }
  }
}
layer {
  name: "pool2"
  type: "Pooling"
  bottom: "conv2"
  top: "pool2"
  pooling_param {
    pool: MAX
    kernel_size: 2
    stride: 2
  }
}
layer {
  name: "ip1"
  type: "InnerProduct"
  bottom: "pool2"
  top: "ip1"
  param {
    lr_mult: 1
  }
  param {
    lr_mult: 2
  }
  inner_product_param {
    num_output: 500
    weight_filler {
      type: "xavier"
    }
    bias_filler {
      type: "constant"
    }
  }
}
layer {
  name: "relu1"
  type: "ReLU"
  bottom: "ip1"
  top: "ip1"
}
layer {
  name: "ip1_2"
  type: "InnerProduct"
  bottom: "ip1"
  top: "ip1_2"
  param {
    lr_mult: 1
  }
  param {
    lr_mult: 2
  }
  inner_product_param {
    num_output: 50
    weight_filler {
      type: "xavier"
    }
    bias_filler {
      type: "constant"
    }
  }
}
layer {
  name: "relu1_2"
  type: "ReLU"
  bottom: "ip1_2"
  top: "ip1_2"
}
layer {
  name: "ip2_1"
  type: "InnerProduct"
  bottom: "ip1_2"
  top: "ip2_1"
  param {
    lr_mult: 1
  }
  param {
    lr_mult: 2
  }
  inner_product_param {
    num_output: 10
    weight_filler {
      type: "xavier"
    }
    bias_filler {
      type: "constant"
    }
  }
}
layer {
  name: "accuracy1"
  type: "Accuracy"
  bottom: "ip2_1"
  bottom: "label"
  top: "accuracy"
  include {
    phase: TEST
  }
}
layer {
  name: "loss1"
  type: "SoftmaxWithLoss"
  bottom: "ip2_1"
  bottom: "label"
  top: "loss"
}
I0826 16:52:08.496124 13242 layer_factory.hpp:77] Creating layer mnist
I0826 16:52:08.496243 13242 db_lmdb.cpp:35] Opened lmdb examples/mnist/mnist_test_lmdb
I0826 16:52:08.496295 13242 net.cpp:84] Creating Layer mnist
I0826 16:52:08.496320 13242 net.cpp:380] mnist -> data
I0826 16:52:08.498081 13242 net.cpp:380] mnist -> label
I0826 16:52:08.498196 13242 data_layer.cpp:45] output data size: 100,1,28,28
I0826 16:52:08.499308 13242 net.cpp:122] Setting up mnist
I0826 16:52:08.503536 13242 net.cpp:129] Top shape: 100 1 28 28 (78400)
I0826 16:52:08.503577 13242 net.cpp:129] Top shape: 100 (100)
I0826 16:52:08.503594 13242 net.cpp:137] Memory required for data: 314000
I0826 16:52:08.503615 13242 layer_factory.hpp:77] Creating layer label_mnist_1_split
I0826 16:52:08.503648 13242 net.cpp:84] Creating Layer label_mnist_1_split
I0826 16:52:08.503665 13242 net.cpp:406] label_mnist_1_split <- label
I0826 16:52:08.503686 13242 net.cpp:380] label_mnist_1_split -> label_mnist_1_split_0
I0826 16:52:08.503713 13242 net.cpp:380] label_mnist_1_split -> label_mnist_1_split_1
I0826 16:52:08.503742 13242 net.cpp:122] Setting up label_mnist_1_split
I0826 16:52:08.503763 13242 net.cpp:129] Top shape: 100 (100)
I0826 16:52:08.503782 13242 net.cpp:129] Top shape: 100 (100)
I0826 16:52:08.503798 13242 net.cpp:137] Memory required for data: 314800
I0826 16:52:08.503814 13242 layer_factory.hpp:77] Creating layer conv1
I0826 16:52:08.503844 13242 net.cpp:84] Creating Layer conv1
I0826 16:52:08.503861 13242 net.cpp:406] conv1 <- data
I0826 16:52:08.504925 13242 net.cpp:380] conv1 -> conv1
I0826 16:52:08.505064 13242 net.cpp:122] Setting up conv1
I0826 16:52:08.512244 13242 net.cpp:129] Top shape: 100 20 24 24 (1152000)
I0826 16:52:08.512307 13242 net.cpp:137] Memory required for data: 4922800
I0826 16:52:08.512344 13242 layer_factory.hpp:77] Creating layer pool1
I0826 16:52:08.512382 13242 net.cpp:84] Creating Layer pool1
I0826 16:52:08.512473 13242 net.cpp:406] pool1 <- conv1
I0826 16:52:08.512507 13242 net.cpp:380] pool1 -> pool1
I0826 16:52:08.512626 13242 net.cpp:122] Setting up pool1
I0826 16:52:08.513766 13242 net.cpp:129] Top shape: 100 20 12 12 (288000)
I0826 16:52:08.513805 13242 net.cpp:137] Memory required for data: 6074800
I0826 16:52:08.513826 13242 layer_factory.hpp:77] Creating layer conv2
I0826 16:52:08.513880 13242 net.cpp:84] Creating Layer conv2
I0826 16:52:08.514019 13242 net.cpp:406] conv2 <- pool1
I0826 16:52:08.514055 13242 net.cpp:380] conv2 -> conv2
I0826 16:52:08.514355 13242 net.cpp:122] Setting up conv2
I0826 16:52:08.514395 13242 net.cpp:129] Top shape: 100 50 8 8 (320000)
I0826 16:52:08.514469 13242 net.cpp:137] Memory required for data: 7354800
I0826 16:52:08.514503 13242 layer_factory.hpp:77] Creating layer pool2
I0826 16:52:08.514528 13242 net.cpp:84] Creating Layer pool2
I0826 16:52:08.514891 13242 net.cpp:406] pool2 <- conv2
I0826 16:52:08.537014 13242 net.cpp:380] pool2 -> pool2
I0826 16:52:08.537354 13242 net.cpp:122] Setting up pool2
I0826 16:52:08.537390 13242 net.cpp:129] Top shape: 100 50 4 4 (80000)
I0826 16:52:08.537410 13242 net.cpp:137] Memory required for data: 7674800
I0826 16:52:08.537428 13242 layer_factory.hpp:77] Creating layer ip1
I0826 16:52:08.537508 13242 net.cpp:84] Creating Layer ip1
I0826 16:52:08.537536 13242 net.cpp:406] ip1 <- pool2
I0826 16:52:08.537567 13242 net.cpp:380] ip1 -> ip1
I0826 16:52:08.568758 13242 net.cpp:122] Setting up ip1
I0826 16:52:08.573139 13242 net.cpp:129] Top shape: 100 500 (50000)
I0826 16:52:08.573750 13242 net.cpp:137] Memory required for data: 7874800
I0826 16:52:08.573802 13242 layer_factory.hpp:77] Creating layer relu1
I0826 16:52:08.573839 13242 net.cpp:84] Creating Layer relu1
I0826 16:52:08.573863 13242 net.cpp:406] relu1 <- ip1
I0826 16:52:08.573885 13242 net.cpp:367] relu1 -> ip1 (in-place)
I0826 16:52:08.573911 13242 net.cpp:122] Setting up relu1
I0826 16:52:08.573933 13242 net.cpp:129] Top shape: 100 500 (50000)
I0826 16:52:08.573951 13242 net.cpp:137] Memory required for data: 8074800
I0826 16:52:08.573967 13242 layer_factory.hpp:77] Creating layer ip1_2
I0826 16:52:08.573997 13242 net.cpp:84] Creating Layer ip1_2
I0826 16:52:08.574025 13242 net.cpp:406] ip1_2 <- ip1
I0826 16:52:08.576913 13242 net.cpp:380] ip1_2 -> ip1_2
I0826 16:52:08.578408 13242 net.cpp:122] Setting up ip1_2
I0826 16:52:08.580546 13242 net.cpp:129] Top shape: 100 50 (5000)
I0826 16:52:08.580869 13242 net.cpp:137] Memory required for data: 8094800
I0826 16:52:08.581004 13242 layer_factory.hpp:77] Creating layer relu1_2
I0826 16:52:08.581961 13242 net.cpp:84] Creating Layer relu1_2
I0826 16:52:08.582499 13242 net.cpp:406] relu1_2 <- ip1_2
I0826 16:52:08.582553 13242 net.cpp:367] relu1_2 -> ip1_2 (in-place)
I0826 16:52:08.582620 13242 net.cpp:122] Setting up relu1_2
I0826 16:52:08.582649 13242 net.cpp:129] Top shape: 100 50 (5000)
I0826 16:52:08.582665 13242 net.cpp:137] Memory required for data: 8114800
I0826 16:52:08.582680 13242 layer_factory.hpp:77] Creating layer ip2_1
I0826 16:52:08.582703 13242 net.cpp:84] Creating Layer ip2_1
I0826 16:52:08.582721 13242 net.cpp:406] ip2_1 <- ip1_2
I0826 16:52:08.582743 13242 net.cpp:380] ip2_1 -> ip2_1
I0826 16:52:08.582788 13242 net.cpp:122] Setting up ip2_1
I0826 16:52:08.582808 13242 net.cpp:129] Top shape: 100 10 (1000)
I0826 16:52:08.582823 13242 net.cpp:137] Memory required for data: 8118800
I0826 16:52:08.582850 13242 layer_factory.hpp:77] Creating layer ip2_1_ip2_1_0_split
I0826 16:52:08.582922 13242 net.cpp:84] Creating Layer ip2_1_ip2_1_0_split
I0826 16:52:08.582976 13242 net.cpp:406] ip2_1_ip2_1_0_split <- ip2_1
I0826 16:52:08.586295 13242 net.cpp:380] ip2_1_ip2_1_0_split -> ip2_1_ip2_1_0_split_0
I0826 16:52:08.596312 13242 net.cpp:380] ip2_1_ip2_1_0_split -> ip2_1_ip2_1_0_split_1
I0826 16:52:08.596391 13242 net.cpp:122] Setting up ip2_1_ip2_1_0_split
I0826 16:52:08.596418 13242 net.cpp:129] Top shape: 100 10 (1000)
I0826 16:52:08.596437 13242 net.cpp:129] Top shape: 100 10 (1000)
I0826 16:52:08.596454 13242 net.cpp:137] Memory required for data: 8126800
I0826 16:52:08.596472 13242 layer_factory.hpp:77] Creating layer accuracy1
I0826 16:52:08.596493 13242 net.cpp:84] Creating Layer accuracy1
I0826 16:52:08.596510 13242 net.cpp:406] accuracy1 <- ip2_1_ip2_1_0_split_0
I0826 16:52:08.596534 13242 net.cpp:406] accuracy1 <- label_mnist_1_split_0
I0826 16:52:08.596581 13242 net.cpp:380] accuracy1 -> accuracy
…
