…
I0825 20:41:11.483984  4597 net.cpp:294] The NetState phase (0) differed from the phase (1) specified by a rule in layer mnist
I0825 20:41:11.484977  4597 net.cpp:294] The NetState phase (0) differed from the phase (1) specified by a rule in layer accuracy
I0825 20:41:11.485358  4597 net.cpp:51] Initializing net from parameters: 
name: "LeNet"
state {
  phase: TRAIN
  level: 0
  stage: ""
}
layer {
  name: "mnist"
  type: "Data"
  top: "data"
  top: "label"
  include {
    phase: TRAIN
  }
  transform_param {
    scale: 0.00390625
  }
  data_param {
    source: "examples/mnist/mnist_train_lmdb"
    batch_size: 64
    backend: LMDB
  }
}
layer {
  name: "conv1"
  type: "Convolution"
  bottom: "data"
  top: "conv1"
  param {
    lr_mult: 1
  }
  param {
    lr_mult: 2
  }
  convolution_param {
    num_output: 20
    kernel_size: 5
    stride: 1
    weight_filler {
      type: "xavier"
    }
    bias_filler {
      type: "constant"
    }
  }
}
layer {
  name: "pool1"
  type: "Pooling"
  bottom: "conv1"
  top: "pool1"
  pooling_param {
    pool: MAX
    kernel_size: 2
    stride: 2
  }
}
layer {
  name: "conv2"
  type: "Convolution"
  bottom: "pool1"
  top: "conv2"
  param {
    lr_mult: 1
  }
  param {
    lr_mult: 2
  }
  convolution_param {
    num_output: 50
    kernel_size: 5
    stride: 1
    weight_filler {
      type: "xavier"
    }
    bias_filler {
      type: "constant"
    }
  }
}
layer {
  name: "pool2"
  type: "Pooling"
  bottom: "conv2"
  top: "pool2"
  pooling_param {
    pool: MAX
    kernel_size: 2
    stride: 2
  }
}
layer {
  name: "ip1"
  type: "InnerProduct"
  bottom: "pool2"
  top: "ip1"
  param {
    lr_mult: 1
  }
  param {
    lr_mult: 2
  }
  inner_product_param {
    num_output: 500
    weight_filler {
      type: "xavier"
    }
    bias_filler {
      type: "constant"
    }
  }
}
layer {
  name: "relu1"
  type: "ReLU"
  bottom: "ip1"
  top: "ip1"
}
layer {
  name: "ip2"
  type: "InnerProduct"
  bottom: "ip1"
  top: "ip2"
  param {
    lr_mult: 1
  }
  param {
    lr_mult: 2
  }
  inner_product_param {
    num_output: 10
    weight_filler {
      type: "xavier"
    }
    bias_filler {
      type: "constant"
    }
  }
}
layer {
  name: "loss"
  type: "SoftmaxWithLoss"
  bottom: "ip2"
  bottom: "label"
  top: "loss"
}
I0825 20:41:11.494534  4597 layer_factory.hpp:77] Creating layer mnist
I0825 20:41:11.494652  4597 db_lmdb.cpp:35] Opened lmdb examples/mnist/mnist_train_lmdb
I0825 20:41:11.494715  4597 net.cpp:84] Creating Layer mnist
I0825 20:41:11.494851  4597 net.cpp:380] mnist -> data
I0825 20:41:11.494881  4597 net.cpp:380] mnist -> label
I0825 20:41:11.494920  4597 data_layer.cpp:45] output data size: 64,1,28,28
I0825 20:41:11.495435  4597 net.cpp:122] Setting up mnist
I0825 20:41:11.496235  4597 net.cpp:129] Top shape: 64 1 28 28 (50176)
I0825 20:41:11.496417  4597 net.cpp:129] Top shape: 64 (64)
I0825 20:41:11.496502  4597 net.cpp:137] Memory required for data: 200960
I0825 20:41:11.496718  4597 layer_factory.hpp:77] Creating layer conv1
I0825 20:41:11.496819  4597 net.cpp:84] Creating Layer conv1
I0825 20:41:11.496971  4597 net.cpp:406] conv1 <- data
I0825 20:41:11.497063  4597 net.cpp:380] conv1 -> conv1
I0825 20:41:11.497267  4597 net.cpp:122] Setting up conv1
I0825 20:41:11.497450  4597 net.cpp:129] Top shape: 64 20 24 24 (737280)
I0825 20:41:11.497539  4597 net.cpp:137] Memory required for data: 3150080
I0825 20:41:11.497663  4597 layer_factory.hpp:77] Creating layer pool1
I0825 20:41:11.497906  4597 net.cpp:84] Creating Layer pool1
I0825 20:41:11.497992  4597 net.cpp:406] pool1 <- conv1
I0825 20:41:11.498082  4597 net.cpp:380] pool1 -> pool1
I0825 20:41:11.498352  4597 net.cpp:122] Setting up pool1
I0825 20:41:11.498898  4597 net.cpp:129] Top shape: 64 20 12 12 (184320)
I0825 20:41:11.499151  4597 net.cpp:137] Memory required for data: 3887360
I0825 20:41:11.499253  4597 layer_factory.hpp:77] Creating layer conv2
I0825 20:41:11.499285  4597 net.cpp:84] Creating Layer conv2
I0825 20:41:11.499384  4597 net.cpp:406] conv2 <- pool1
I0825 20:41:11.499406  4597 net.cpp:380] conv2 -> conv2
I0825 20:41:11.499744  4597 net.cpp:122] Setting up conv2
I0825 20:41:11.499928  4597 net.cpp:129] Top shape: 64 50 8 8 (204800)
I0825 20:41:11.500028  4597 net.cpp:137] Memory required for data: 4706560
I0825 20:41:11.500136  4597 layer_factory.hpp:77] Creating layer pool2
I0825 20:41:11.502810  4597 net.cpp:84] Creating Layer pool2
I0825 20:41:11.502908  4597 net.cpp:406] pool2 <- conv2
I0825 20:41:11.502997  4597 net.cpp:380] pool2 -> pool2
I0825 20:41:11.503092  4597 net.cpp:122] Setting up pool2
I0825 20:41:11.503180  4597 net.cpp:129] Top shape: 64 50 4 4 (51200)
I0825 20:41:11.503267  4597 net.cpp:137] Memory required for data: 4911360
I0825 20:41:11.503355  4597 layer_factory.hpp:77] Creating layer ip1
I0825 20:41:11.503443  4597 net.cpp:84] Creating Layer ip1
I0825 20:41:11.503500  4597 net.cpp:406] ip1 <- pool2
I0825 20:41:11.503561  4597 net.cpp:380] ip1 -> ip1
I0825 20:41:11.514178  4597 net.cpp:122] Setting up ip1
I0825 20:41:11.518878  4597 net.cpp:129] Top shape: 64 500 (32000)
I0825 20:41:11.519013  4597 net.cpp:137] Memory required for data: 5039360
I0825 20:41:11.519124  4597 layer_factory.hpp:77] Creating layer relu1
I0825 20:41:11.519246  4597 net.cpp:84] Creating Layer relu1
I0825 20:41:11.519345  4597 net.cpp:406] relu1 <- ip1
I0825 20:41:11.519441  4597 net.cpp:367] relu1 -> ip1 (in-place)
I0825 20:41:11.519565  4597 net.cpp:122] Setting up relu1
I0825 20:41:11.519665  4597 net.cpp:129] Top shape: 64 500 (32000)
I0825 20:41:11.519759  4597 net.cpp:137] Memory required for data: 5167360
I0825 20:41:11.519858  4597 layer_factory.hpp:77] Creating layer ip2
I0825 20:41:11.519990  4597 net.cpp:84] Creating Layer ip2
I0825 20:41:11.520083  4597 net.cpp:406] ip2 <- ip1
I0825 20:41:11.520211  4597 net.cpp:380] ip2 -> ip2
I0825 20:41:11.520364  4597 net.cpp:122] Setting up ip2
I0825 20:41:11.520463  4597 net.cpp:129] Top shape: 64 10 (640)
I0825 20:41:11.520557  4597 net.cpp:137] Memory required for data: 5169920
I0825 20:41:11.526316  4597 layer_factory.hpp:77] Creating layer loss
I0825 20:41:11.526448  4597 net.cpp:84] Creating Layer loss
I0825 20:41:11.526512  4597 net.cpp:406] loss <- ip2
I0825 20:41:11.526572  4597 net.cpp:406] loss <- label
I0825 20:41:11.526743  4597 net.cpp:380] loss -> loss
I0825 20:41:11.526839  4597 layer_factory.hpp:77] Creating layer loss
…
I0825 20:41:11.528440  4597 solver.cpp:172] Creating test net (#0) specified by net file: examples/mnist/lenet_train_test.prototxt
I0825 20:41:11.528599  4597 net.cpp:294] The NetState phase (1) differed from the phase (0) specified by a rule in layer mnist
I0825 20:41:11.528805  4597 net.cpp:51] Initializing net from parameters: 
name: "LeNet"
state {
  phase: TEST
}
layer {
  name: "mnist"
  type: "Data"
  top: "data"
  top: "label"
  include {
    phase: TEST
  }
  transform_param {
    scale: 0.00390625
  }
  data_param {
    source: "examples/mnist/mnist_test_lmdb"
    batch_size: 100
    backend: LMDB
  }
}
layer {
  name: "conv1"
  type: "Convolution"
  bottom: "data"
  top: "conv1"
  param {
    lr_mult: 1
  }
  param {
    lr_mult: 2
  }
  convolution_param {
    num_output: 20
    kernel_size: 5
    stride: 1
    weight_filler {
      type: "xavier"
    }
    bias_filler {
      type: "constant"
    }
  }
}
layer {
  name: "pool1"
  type: "Pooling"
  bottom: "conv1"
  top: "pool1"
  pooling_param {
    pool: MAX
    kernel_size: 2
    stride: 2
  }
}
layer {
  name: "conv2"
  type: "Convolution"
  bottom: "pool1"
  top: "conv2"
  param {
    lr_mult: 1
  }
  param {
    lr_mult: 2
  }
  convolution_param {
    num_output: 50
    kernel_size: 5
    stride: 1
    weight_filler {
      type: "xavier"
    }
    bias_filler {
      type: "constant"
    }
  }
}
layer {
  name: "pool2"
  type: "Pooling"
  bottom: "conv2"
  top: "pool2"
  pooling_param {
    pool: MAX
    kernel_size: 2
    stride: 2
  }
}
layer {
  name: "ip1"
  type: "InnerProduct"
  bottom: "pool2"
  top: "ip1"
  param {
    lr_mult: 1
  }
  param {
    lr_mult: 2
  }
  inner_product_param {
    num_output: 500
    weight_filler {
      type: "xavier"
    }
    bias_filler {
      type: "constant"
    }
  }
}
layer {
  name: "relu1"
  type: "ReLU"
  bottom: "ip1"
  top: "ip1"
}
layer {
  name: "ip2"
  type: "InnerProduct"
  bottom: "ip1"
  top: "ip2"
  param {
    lr_mult: 1
  }
  param {
    lr_mult: 2
  }
  inner_product_param {
    num_output: 10
    weight_filler {
      type: "xavier"
    }
    bias_filler {
      type: "constant"
    }
  }
}
layer {
  name: "accuracy"
  type: "Accuracy"
  bottom: "ip2"
  bottom: "label"
  top: "accuracy"
  include {
    phase: TEST
  }
}
layer {
  name: "loss"
  type: "SoftmaxWithLoss"
  bottom: "ip2"
  bottom: "label"
  top: "loss"
}
I0825 20:41:11.532393  4597 layer_factory.hpp:77] Creating layer mnist
I0825 20:41:11.532732  4597 db_lmdb.cpp:35] Opened lmdb examples/mnist/mnist_test_lmdb
I0825 20:41:11.532757  4597 net.cpp:84] Creating Layer mnist
I0825 20:41:11.532771  4597 net.cpp:380] mnist -> data
I0825 20:41:11.532788  4597 net.cpp:380] mnist -> label
I0825 20:41:11.532809  4597 data_layer.cpp:45] output data size: 100,1,28,28
I0825 20:41:11.532856  4597 net.cpp:122] Setting up mnist
I0825 20:41:11.532871  4597 net.cpp:129] Top shape: 100 1 28 28 (78400)
I0825 20:41:11.532883  4597 net.cpp:129] Top shape: 100 (100)
I0825 20:41:11.532893  4597 net.cpp:137] Memory required for data: 314000
I0825 20:41:11.533170  4597 layer_factory.hpp:77] Creating layer label_mnist_1_split
I0825 20:41:11.533188  4597 net.cpp:84] Creating Layer label_mnist_1_split
I0825 20:41:11.533198  4597 net.cpp:406] label_mnist_1_split <- label
I0825 20:41:11.533212  4597 net.cpp:380] label_mnist_1_split -> label_mnist_1_split_0
I0825 20:41:11.533226  4597 net.cpp:380] label_mnist_1_split -> label_mnist_1_split_1
I0825 20:41:11.533241  4597 net.cpp:122] Setting up label_mnist_1_split
I0825 20:41:11.533253  4597 net.cpp:129] Top shape: 100 (100)
I0825 20:41:11.533263  4597 net.cpp:129] Top shape: 100 (100)
I0825 20:41:11.533272  4597 net.cpp:137] Memory required for data: 314800
I0825 20:41:11.533282  4597 layer_factory.hpp:77] Creating layer conv1
I0825 20:41:11.533298  4597 net.cpp:84] Creating Layer conv1
I0825 20:41:11.533308  4597 net.cpp:406] conv1 <- data
I0825 20:41:11.533319  4597 net.cpp:380] conv1 -> conv1
I0825 20:41:11.533352  4597 net.cpp:122] Setting up conv1
I0825 20:41:11.533365  4597 net.cpp:129] Top shape: 100 20 24 24 (1152000)
I0825 20:41:11.533375  4597 net.cpp:137] Memory required for data: 4922800
I0825 20:41:11.533390  4597 layer_factory.hpp:77] Creating layer pool1
I0825 20:41:11.533406  4597 net.cpp:84] Creating Layer pool1
I0825 20:41:11.533421  4597 net.cpp:406] pool1 <- conv1
I0825 20:41:11.533812  4597 net.cpp:380] pool1 -> pool1
I0825 20:41:11.533830  4597 net.cpp:122] Setting up pool1
I0825 20:41:11.533843  4597 net.cpp:129] Top shape: 100 20 12 12 (288000)
I0825 20:41:11.533852  4597 net.cpp:137] Memory required for data: 6074800
I0825 20:41:11.533862  4597 layer_factory.hpp:77] Creating layer conv2
I0825 20:41:11.533876  4597 net.cpp:84] Creating Layer conv2
I0825 20:41:11.533886  4597 net.cpp:406] conv2 <- pool1
I0825 20:41:11.533900  4597 net.cpp:380] conv2 -> conv2
I0825 20:41:11.534118  4597 net.cpp:122] Setting up conv2
I0825 20:41:11.534137  4597 net.cpp:129] Top shape: 100 50 8 8 (320000)
I0825 20:41:11.534145  4597 net.cpp:137] Memory required for data: 7354800
I0825 20:41:11.534160  4597 layer_factory.hpp:77] Creating layer pool2
I0825 20:41:11.534524  4597 net.cpp:84] Creating Layer pool2
I0825 20:41:11.534538  4597 net.cpp:406] pool2 <- conv2
I0825 20:41:11.534551  4597 net.cpp:380] pool2 -> pool2
I0825 20:41:11.534565  4597 net.cpp:122] Setting up pool2
I0825 20:41:11.534579  4597 net.cpp:129] Top shape: 100 50 4 4 (80000)
I0825 20:41:11.534587  4597 net.cpp:137] Memory required for data: 7674800
I0825 20:41:11.534597  4597 layer_factory.hpp:77] Creating layer ip1
I0825 20:41:11.534611  4597 net.cpp:84] Creating Layer ip1
I0825 20:41:11.534622  4597 net.cpp:406] ip1 <- pool2
I0825 20:41:11.534634  4597 net.cpp:380] ip1 -> ip1
I0825 20:41:11.537674  4597 net.cpp:122] Setting up ip1
I0825 20:41:11.548931  4597 net.cpp:129] Top shape: 100 500 (50000)
I0825 20:41:11.549095  4597 net.cpp:137] Memory required for data: 7874800
I0825 20:41:11.549194  4597 layer_factory.hpp:77] Creating layer relu1
I0825 20:41:11.549285  4597 net.cpp:84] Creating Layer relu1
I0825 20:41:11.549367  4597 net.cpp:406] relu1 <- ip1
I0825 20:41:11.549450  4597 net.cpp:367] relu1 -> ip1 (in-place)
I0825 20:41:11.549554  4597 net.cpp:122] Setting up relu1
I0825 20:41:11.549639  4597 net.cpp:129] Top shape: 100 500 (50000)
I0825 20:41:11.549722  4597 net.cpp:137] Memory required for data: 8074800
I0825 20:41:11.549808  4597 layer_factory.hpp:77] Creating layer ip2
I0825 20:41:11.549901  4597 net.cpp:84] Creating Layer ip2
I0825 20:41:11.549983  4597 net.cpp:406] ip2 <- ip1
I0825 20:41:11.550083  4597 net.cpp:380] ip2 -> ip2
I0825 20:41:11.550215  4597 net.cpp:122] Setting up ip2
I0825 20:41:11.550297  4597 net.cpp:129] Top shape: 100 10 (1000)
I0825 20:41:11.550379  4597 net.cpp:137] Memory required for data: 8078800
I0825 20:41:11.550467  4597 layer_factory.hpp:77] Creating layer ip2_ip2_0_split
I0825 20:41:11.550599  4597 net.cpp:84] Creating Layer ip2_ip2_0_split
I0825 20:41:11.550752  4597 net.cpp:406] ip2_ip2_0_split <- ip2
I0825 20:41:11.550837  4597 net.cpp:380] ip2_ip2_0_split -> ip2_ip2_0_split_0
I0825 20:41:11.550930  4597 net.cpp:380] ip2_ip2_0_split -> ip2_ip2_0_split_1
I0825 20:41:11.551021  4597 net.cpp:122] Setting up ip2_ip2_0_split
I0825 20:41:11.551136  4597 net.cpp:129] Top shape: 100 10 (1000)
I0825 20:41:11.551223  4597 net.cpp:129] Top shape: 100 10 (1000)
I0825 20:41:11.551304  4597 net.cpp:137] Memory required for data: 8086800
I0825 20:41:11.551389  4597 layer_factory.hpp:77] Creating layer accuracy
I0825 20:41:11.551484  4597 net.cpp:84] Creating Layer accuracy
I0825 20:41:11.551586  4597 net.cpp:406] accuracy <- ip2_ip2_0_split_0
I0825 20:41:11.551700  4597 net.cpp:406] accuracy <- label_mnist_1_split_0
I0825 20:41:11.551790  4597 net.cpp:380] accuracy -> accuracy
…
