…
I1030 21:09:03.751137 17654 net.cpp:294] The NetState phase (0) differed from the phase (1) specified by a rule in layer mnist
I1030 21:09:03.752343 17654 net.cpp:294] The NetState phase (0) differed from the phase (1) specified by a rule in layer accuracy
I1030 21:09:03.752408 17654 net.cpp:51] Initializing net from parameters: 
name: "LeNet"
state {
  phase: TRAIN
  level: 0
  stage: ""
}
layer {
  name: "mnist"
  type: "Data"
  top: "data"
  top: "label"
  include {
    phase: TRAIN
  }
  transform_param {
    scale: 0.00390625
  }
  data_param {
    source: "examples/mnist/mnist_train_lmdb"
    batch_size: 64
    backend: LMDB
  }
}
layer {
  name: "ip2"
  type: "InnerProduct"
  bottom: "data"
  top: "ip2"
  param {
    lr_mult: 1
  }
  param {
    lr_mult: 2
  }
  inner_product_param {
    num_output: 10
    weight_filler {
      type: "xavier"
    }
    bias_filler {
      type: "constant"
    }
  }
}
layer {
  name: "loss"
  type: "SoftmaxWithLoss"
  bottom: "ip2"
  bottom: "label"
  top: "loss"
}
I1030 21:09:03.752539 17654 layer_factory.hpp:77] Creating layer mnist
I1030 21:09:03.752647 17654 db_lmdb.cpp:35] Opened lmdb examples/mnist/mnist_train_lmdb
I1030 21:09:03.753036 17654 net.cpp:84] Creating Layer mnist
I1030 21:09:03.753056 17654 net.cpp:380] mnist -> data
I1030 21:09:03.753084 17654 net.cpp:380] mnist -> label
I1030 21:09:03.753126 17654 data_layer.cpp:45] output data size: 64,1,28,28
I1030 21:09:03.753579 17654 net.cpp:122] Setting up mnist
I1030 21:09:03.759547 17654 net.cpp:129] Top shape: 64 1 28 28 (50176)
I1030 21:09:03.759584 17654 net.cpp:129] Top shape: 64 (64)
I1030 21:09:03.759596 17654 net.cpp:137] Memory required for data: 200960
I1030 21:09:03.759640 17654 layer_factory.hpp:77] Creating layer ip2
I1030 21:09:03.759666 17654 net.cpp:84] Creating Layer ip2
I1030 21:09:03.759681 17654 net.cpp:406] ip2 <- data
I1030 21:09:03.759702 17654 net.cpp:380] ip2 -> ip2
I1030 21:09:03.759856 17654 net.cpp:122] Setting up ip2
I1030 21:09:03.760236 17654 net.cpp:129] Top shape: 64 10 (640)
I1030 21:09:03.760254 17654 net.cpp:137] Memory required for data: 203520
I1030 21:09:03.760293 17654 layer_factory.hpp:77] Creating layer loss
I1030 21:09:03.760313 17654 net.cpp:84] Creating Layer loss
I1030 21:09:03.760326 17654 net.cpp:406] loss <- ip2
I1030 21:09:03.760339 17654 net.cpp:406] loss <- label
I1030 21:09:03.760354 17654 net.cpp:380] loss -> loss
I1030 21:09:03.760375 17654 layer_factory.hpp:77] Creating layer loss
…
I1030 21:09:03.760840 17654 solver.cpp:175] Creating test net (#0) specified by net file: examples/mnist/lenet_lr.prototxt
I1030 21:09:03.761492 17654 net.cpp:294] The NetState phase (1) differed from the phase (0) specified by a rule in layer mnist
I1030 21:09:03.761548 17654 net.cpp:51] Initializing net from parameters: 
name: "LeNet"
state {
  phase: TEST
}
layer {
  name: "mnist"
  type: "Data"
  top: "data"
  top: "label"
  include {
    phase: TEST
  }
  transform_param {
    scale: 0.00390625
  }
  data_param {
    source: "examples/mnist/mnist_test_lmdb"
    batch_size: 100
    backend: LMDB
  }
}
layer {
  name: "ip2"
  type: "InnerProduct"
  bottom: "data"
  top: "ip2"
  param {
    lr_mult: 1
  }
  param {
    lr_mult: 2
  }
  inner_product_param {
    num_output: 10
    weight_filler {
      type: "xavier"
    }
    bias_filler {
      type: "constant"
    }
  }
}
layer {
  name: "accuracy"
  type: "Accuracy"
  bottom: "ip2"
  bottom: "label"
  top: "accuracy"
  include {
    phase: TEST
  }
}
layer {
  name: "loss"
  type: "SoftmaxWithLoss"
  bottom: "ip2"
  bottom: "label"
  top: "loss"
}
I1030 21:09:03.761714 17654 layer_factory.hpp:77] Creating layer mnist
I1030 21:09:03.761773 17654 db_lmdb.cpp:35] Opened lmdb examples/mnist/mnist_test_lmdb
I1030 21:09:03.761797 17654 net.cpp:84] Creating Layer mnist
I1030 21:09:03.761811 17654 net.cpp:380] mnist -> data
I1030 21:09:03.761828 17654 net.cpp:380] mnist -> label
I1030 21:09:03.761852 17654 data_layer.cpp:45] output data size: 100,1,28,28
I1030 21:09:03.761898 17654 net.cpp:122] Setting up mnist
I1030 21:09:03.761914 17654 net.cpp:129] Top shape: 100 1 28 28 (78400)
I1030 21:09:03.761927 17654 net.cpp:129] Top shape: 100 (100)
I1030 21:09:03.761937 17654 net.cpp:137] Memory required for data: 314000
I1030 21:09:03.761948 17654 layer_factory.hpp:77] Creating layer label_mnist_1_split
I1030 21:09:03.761962 17654 net.cpp:84] Creating Layer label_mnist_1_split
I1030 21:09:03.761973 17654 net.cpp:406] label_mnist_1_split <- label
I1030 21:09:03.761986 17654 net.cpp:380] label_mnist_1_split -> label_mnist_1_split_0
I1030 21:09:03.762001 17654 net.cpp:380] label_mnist_1_split -> label_mnist_1_split_1
I1030 21:09:03.762017 17654 net.cpp:122] Setting up label_mnist_1_split
I1030 21:09:03.762029 17654 net.cpp:129] Top shape: 100 (100)
I1030 21:09:03.762042 17654 net.cpp:129] Top shape: 100 (100)
I1030 21:09:03.762426 17654 net.cpp:137] Memory required for data: 314800
I1030 21:09:03.766041 17654 layer_factory.hpp:77] Creating layer ip2
I1030 21:09:03.766448 17654 net.cpp:84] Creating Layer ip2
I1030 21:09:03.766793 17654 net.cpp:406] ip2 <- data
I1030 21:09:03.766813 17654 net.cpp:380] ip2 -> ip2
I1030 21:09:03.766901 17654 net.cpp:122] Setting up ip2
I1030 21:09:03.766917 17654 net.cpp:129] Top shape: 100 10 (1000)
I1030 21:09:03.766928 17654 net.cpp:137] Memory required for data: 318800
I1030 21:09:03.766947 17654 layer_factory.hpp:77] Creating layer ip2_ip2_0_split
I1030 21:09:03.766960 17654 net.cpp:84] Creating Layer ip2_ip2_0_split
I1030 21:09:03.766988 17654 net.cpp:406] ip2_ip2_0_split <- ip2
I1030 21:09:03.767436 17654 net.cpp:380] ip2_ip2_0_split -> ip2_ip2_0_split_0
I1030 21:09:03.767455 17654 net.cpp:380] ip2_ip2_0_split -> ip2_ip2_0_split_1
I1030 21:09:03.767472 17654 net.cpp:122] Setting up ip2_ip2_0_split
I1030 21:09:03.767485 17654 net.cpp:129] Top shape: 100 10 (1000)
I1030 21:09:03.767498 17654 net.cpp:129] Top shape: 100 10 (1000)
I1030 21:09:03.767506 17654 net.cpp:137] Memory required for data: 326800
I1030 21:09:03.767518 17654 layer_factory.hpp:77] Creating layer accuracy
I1030 21:09:03.767531 17654 net.cpp:84] Creating Layer accuracy
I1030 21:09:03.767542 17654 net.cpp:406] accuracy <- ip2_ip2_0_split_0
I1030 21:09:03.767555 17654 net.cpp:406] accuracy <- label_mnist_1_split_0
I1030 21:09:03.767568 17654 net.cpp:380] accuracy -> accuracy
…
